SLD_web/test/sign_language_model.pth (torch, 252987 bytes, 15 tensors)

input_norm.weight f4 [34]
0	0x3f88e48f	1.069475
1	0x3f88ff99	1.0703002
2	0x3f8c8709	1.097871
3	0x3f8893d4	1.0670114
4	0x3f8bb137	1.0913457
5	0x3f89f57b	1.077804
6	0x3f8d9a7e	1.1062772
7	0x3f89a0e0	1.075222
8	0x3f8d49aa	1.1038105
9	0x3f8ce0af	1.1006068
10	0x3f8ee01d	1.1162144
11	0x3f8fbb3b	1.1229013
12	0x3f8d0ac2	1.1018908
13	0x3f9468a3	1.1594433
14	0x3f91f925	1.1404158
15	0x3f92fcb5	1.148337
16	0x3f93d1fa	1.1548455
17	0x3f82c7e3	1.021725
18	0x3f85fbe0	1.0467491
19	0x3f8669cd	1.0501038
20	0x3f8a468a	1.0802777
21	0x3f8962f2	1.0733321
22	0x3f85e215	1.045962
23	0x3f851042	1.0395586
24	0x3f88e59f	1.0695075
25	0x3f85749e	1.0426214
26	0x3f90a071	1.1298963
27	0x3f865c30	1.0496883
28	0x3f866c56	1.0501812
29	0x3f8a890c	1.0823073
30	0x3f8a5dd7	1.0809888
31	0x3f8a8a6e	1.0823495
32	0x3f88ef2c	1.069799
33	0x3f878907	1.0588692

input_norm.bias f4 [34]
0	0xbca57716	-0.020198386
1	0xbb098b88	-0.0020987708
2	0x3cce2caf	0.025167791
3	0x3c11adc1	0.008891524
4	0x3d047762	0.032340415
5	0xbccf47ff	-0.025302885
6	0xbaa8bdf3	-0.0012873992
7	0xbcade492	-0.021227155
8	0xbd920be8	-0.07131177
9	0xbd5160a0	-0.05111754
10	0x3da9f728	0.082990944
11	0xbc843074	-0.016136386
12	0x3cba4092	0.022735868
13	0x3cf766ba	0.030200351
14	0xbc96a64a	-0.01838984
15	0x3cd3b7c3	0.02584446
16	0x3e2c3051	0.16815306
17	0xbca4ce3c	-0.020117871
18	0xbdb156ba	-0.0865912
19	0x3d444fb0	0.04792756
20	0xbdad02a4	-0.08447769
21	0xbd9b0b7e	-0.07570551
22	0xbb8a1c33	-0.0042147874
23	0xbda54099	-0.08068962
24	0xbe0826a4	-0.1329599
25	0xbcf08311	-0.029359372
26	0x3e146ba1	0.14494182
27	0xbda07086	-0.07833962
28	0xbdce5d88	-0.100764334
29	0xbdb5ca19	-0.08876438
30	0xbde19e27	-0.11016493
31	0xbde4a4ac	-0.11164221
32	0xbde2cc3e	-0.11074112
33	0xbe004c30	-0.12529063

lstm.weight_ih_l0 f4 [256, 34]
0	0x3dec48a9	0.11537296
1	0xbde9f056	-0.114227936
2	0x3c9d8796	0.019229691
3	0x3d9c85a3	0.07642677
4	0xbdcaf518	-0.09910029
5	0x3d722680	0.059118748
6	0xbd2dbdf2	-0.042417474
7	0xbd44ef44	-0.048079744
8	0xbd5236d8	-0.051321834
9	0x3d6dd05e	0.058060043
10	0x3de22768	0.110426724
11	0xbdd85ac6	-0.10564189
12	0x3c460b35	0.012087633
13	0xbd7af8b0	-0.061272323
14	0x3e0f0019	0.13964881
15	0x3dde35ed	0.10850129
16	0x3dbbb69f	0.091656916
17	0xbdcd0314	-0.10010353
18	0xbbee79ae	-0.007277689
19	0xbdbcb3a8	-0.09213954
20	0xbd0b3224	-0.033983365
21	0xbde7893b	-0.113054715
22	0x3d12c2e7	0.035830405
23	0x3dd982c1	0.106206425
24	0xbd875f01	-0.066099174
25	0xbcc68f24	-0.024238177
26	0xbcdc4ea2	-0.026892964
27	0xbdec526c	-0.11539158
28	0x3da60736	0.08106844
29	0x3d3fc9de	0.046823375
30	0xbd9c15f3	-0.07621374
31	0x3d977b59	0.073965736
32	0xbdfd61e4	-0.12372187
33	0xbcee52a9	-0.02909215
34	0x3dd0b90b	0.10191544
35	0x3da62822	0.081131235
36	0xbc61aed1	-0.01377459
37	0xbcd29e88	-0.02571036
38	0x3da13d43	0.07873013
39	0x3e09771b	0.13424341
40	0xbcc63761	-0.024196329
41	0xbd2a556e	-0.04158538
42	0x3ddf8493	0.109139584
43	0x3dcaa3e7	0.09894543
44	0xbd0bb30b	-0.034106296
45	0xbdb913d2	-0.090369835
46	0x3dbaeb17	0.09126871
47	0xb9f1339e	-0.0004600556
48	0x3cbea47c	0.023271792
49	0x3d97d37a	0.07413383
50	0xbd7fcab7	-0.062449183
51	0xbdf755bb	-0.12076899
52	0x3d452faa	0.04814116
53	0x3db2af61	0.08724857
54	0x3d79fe1a	0.061033346
55	0x3d9265bf	0.07148313
56	0xbe1b6b88	-0.15177739
57	0xbe12d556	-0.14339194
58	0xbdaff317	-0.085912876
59	0x3daee3dc	0.085395545
60	0xbdb44e94	-0.0880405
61	0x3db03d4a	0.0860544
62	0xbc6421d2	-0.013924079
63	0x3a326f7b	0.0006806773
64	0xbdd604a0	-0.10450101
65	0xbcef9bc3	-0.029249078
66	0xbce62cff	-0.028097628
67	0xbd8ab88e	-0.06773482
68	0xbcf56411	-0.029954942
69	0x3dc46daf	0.09591233
70	0xbdab78ba	-0.08372636
71	0x3d758e06	0.059949897
72	0xbd591d3a	-0.05300639
73	0x3d3041e6	0.043031596
74	0xbe0d1a07	-0.1377946
75	0xbd309252	-0.043108292
76	0xbcb6e29d	-0.022324855
77	0xbdaf8a14	-0.08571258
78	0x3d5ac384	0.053409114
79	0xbd402a94	-0.046915606
80	0x3ce95e0c	0.028487228
81	0xbdb545c7	-0.088511996
82	0x3c0f7c3d	0.008757648
83	0x3dc5be91	0.09655488
84	0x3e11bd42	0.14232352
85	0x3e0ae21a	0.13562813
86	0x3d80a77f	0.06281947
87	0x3d7835b9	0.06059811
88	0x3d1c3bf0	0.0381431
89	0xbdbe7d38	-0.09301227
90	0xbdc85e89	-0.09783656
91	0xbd5822b1	-0.05276746
92	0x3e0043a6	0.12525806
93	0x3acae7aa	0.0015480418
94	0x3cfa6f58	0.030570671
95	0x3dceb341	0.10092784
96	0xbd7ad29c	-0.06123601
97	0x3dce5414	0.100746304
98	0xbdc27850	-0.09495604
99	0x3cf065e1	0.029345455
100	0xbc578a85	-0.013155584
101	0x3c98ab8f	0.018636493
102	0x3d09b97e	0.033624165
103	0x3dc96068	0.09832841
104	0xbe3932ea	-0.18085828
105	0x3dee8ee9	0.11648352
106	0xbdae692e	-0.08516155
107	0xbd3f3dfe	-0.04668998
108	0xbd223950	-0.03960544
109	0x3d7d888f	0.06189781
110	0x3c49e3c2	0.012322368
111	0x3d0fccb3	0.035107326
112	0xbd81d60c	-0.06339654
113	0xbda47856	-0.08030765
114	0x3da23e23	0.07922008
115	0x3d87fc17	0.06639879
116	0x3dbd128c	0.09232053
117	0xbd388d7f	-0.045056816
118	0xbc5e7554	-0.013577778
119	0x3d13be71	0.03607029
120	0x3b607d45	0.0034254354
121	0x3dd2b821	0.10289026
122	0x3d92dbe0	0.07170844
123	0x3cccf462	0.025018875
124	0xbd12e0ab	-0.03585879
125	0x3dc0baca	0.09410627
126	0x3dbaf769	0.09129221
127	0xbda2a081	-0.0794077
128	0x3dc81d6e	0.09771238
129	0xbda7422b	-0.081669174
130	0xbd81ea18	-0.06343478
131	0x3cc989d9	0.024601864
132	0xbd381781	-0.04494429
133	0xbb363225	-0.0027800885
134	0xbd7cc8fe	-0.06171512
135	0x3d36cef5	0.044630963
136	0xbde3276f	-0.11091506
137	0xbd9db0ba	-0.076997235
138	0xbd0c3929	-0.0342342
139	0x3dc44d40	0.09585047
140	0x3d9e7cb4	0.07738629
141	0xbbd9e86f	-0.0066500227
142	0xbd1770a9	-0.036972675
143	0xbc0e241d	-0.008675602
144	0x3c95ac11	0.018270524
145	0x3dfbb87d	0.12291048
146	0xbd13c950	-0.03608066
147	0x3c6a03fe	0.014283178
148	0x3d8ed103	0.069734596
149	0x3b3e9e16	0.0029085926
150	0xbe06af80	-0.13152885
151	0x3d9bdf35	0.07610933
152	0x3deefc05	0.11669163
153	0xbdc6fac2	-0.09715797
154	0x3c964bfe	0.018346783
155	0xbdb48737	-0.08814853
156	0xbc83178d	-0.01600244
157	0xbde33447	-0.110939555
158	0x3d907bbb	0.0705485
159	0x3b855298	0.004068684
160	0x3d8ee39c	0.06977007
161	0xbddd53cb	-0.10806998
162	0xbca474fc	-0.020075314
163	0x3d97e5cf	0.074168794
164	0xbcdfc462	-0.027315322
165	0x3d98627c	0.074406594
166	0xbd23b422	-0.03996671
167	0xbdb25809	-0.087081976
168	0x3dad30a1	0.08456541
169	0xbddd095b	-0.107928
170	0xbdd47b5b	-0.10375091
171	0x3d7b956e	0.061421804
172	0xbc94aae3	-0.018147891
173	0x3d98c7e2	0.074599996
174	0x3ce39dd0	0.027785212
175	0xbddf8fb0	-0.10916078
176	0x3dc9679d	0.09834216
177	0xbe160e1e	-0.14653823
178	0xbdb11c5a	-0.08647986
179	0xbd685331	-0.056719963
180	0xbcb061fd	-0.0215311
181	0x3cc4727c	0.023980372
182	0xbc8eb632	-0.017420862
183	0xbdd7a9b5	-0.10530416
184	0x3c822a00	0.015889168
185	0x3d6b08dc	0.057381496
186	0xbd80caa7	-0.06288653
187	0x3e130cf5	0.14360411
188	0x3c9f597e	0.019451853
189	0x3cd7ef11	0.026359113
190	0xbd2048e3	-0.03913201
191	0x3d3cd0c8	0.046097547
192	0xbbb2ffd2	-0.005462625
193	0xbd60abf9	-0.054851506
194	0xbd0b9ffa	-0.034088112
195	0x3d454795	0.04816397
196	0xbd928c5b	-0.07155677
197	0x3dc93aa8	0.09825641
198	0xbdd9b9c2	-0.106311336
199	0x3d0c9b66	0.034327887
200	0x3d6ddc20	0.058071256
201	0xbdfcc221	-0.12341715
202	0x3da328de	0.07966779
203	0x3ddd1f7d	0.107970215
204	0xbe0d22e2	-0.13782838
205	0x3c9059fb	0.017621031
206	0x3d8b870a	0.06812866
207	0xbde97187	-0.11398607
208	0xbddb9dbc	-0.10723445
209	0x3d33290c	0.043740317
210	0x3cd791c2	0.02631462
211	0x3dd289de	0.10280202
212	0x3d6587be	0.056037657
213	0xbdc07442	-0.093971744
214	0xbbf0e2c0	-0.0073512495
215	0x3ca11a7e	0.019665953
216	0x3d3b47f6	0.045722924
217	0xbd5d8de9	-0.054090414
218	0x3d2136f4	0.039359048
219	0x3e0e1f9d	0.13879247
220	0x3d1c9197	0.038224783
221	0x3ddea7c8	0.108718455
222	0xba852a55	-0.0010159711
223	0xbde572c8	-0.112035334
224	0xbe02e286	-0.12781724
225	0xbdfc2c5b	-0.12313148
226	0x3da8cc3b	0.08242079
227	0x3d2baa03	0.041910183
228	0xbdd94f08	-0.10610777
229	0xbd74f22b	-0.059801262
230	0x3e38173c	0.17977613
231	0x3d058660	0.032598853
232	0xbe12ca8b	-0.14335077
233	0x3d48a388	0.04898408
234	0xbdcb1b25	-0.09917287
235	0xbdab924a	-0.08377512
236	0x3d9ae021	0.075622804
237	0xbd2e1e0e	-0.04250913
238	0xbdb4551b	-0.08805295
239	0xbd96433b	-0.07337042
240	0x3d28e123	0.041230332
241	0xbdc9bc51	-0.09850372
242	0xbd42b19c	-0.047532663
243	0x3d3653f8	0.044513673
244	0xbd34477b	-0.04401348
245	0xbdaeca3c	-0.08534667
246	0x3dbf3788	0.093367636
247	0xbdd6e52c	-0.1049293
248	0x3cbc55da	0.022990156
249	0xbd8d6e55	-0.0690581
250	0x3c8fbac1	0.017545106
251	0xbdad7332	-0.084692374
252	0x3ce95bf0	0.028486222
253	0x3ddf2d2f	0.1089729
254	0x3d759de1	0.05996502
255	0x3cc624a9	0.024187403

lstm.weight_hh_l0 f4 [256, 64]
0	0xbd99e4d4	-0.075143486
1	0xbd2d1766	-0.042258643
2	0xbd88a12d	-0.06671367
3	0xbdc4c4e4	-0.096078664
4	0x3d02d764	0.031943694
5	0x3d3e47e8	0.046455294
6	0xbd4f703f	-0.050644156
7	0x3df1d4ea	0.11808188
8	0xbb8d534f	-0.0043129097
9	0xbdf88edb	-0.121366225
10	0xbe263857	-0.1623243
11	0x3ce7cc28	0.028295591
12	0x3d074364	0.033023253
13	0xbd865891	-0.065598615
14	0x3dbeb46b	0.09311756
15	0x3df14258	0.11780232
16	0xbdcb4bac	-0.09926543
17	0x3e08683e	0.13321015
18	0xbdeebd9f	-0.11657261
19	0xbd05757f	-0.032582756
20	0xbdca7e46	-0.09887366
21	0x3c8b426e	0.01699945
22	0x3c949e7b	0.018141976
23	0x3cff8fc6	0.031196486
24	0xbddc21f6	-0.10748665
25	0x3cd2e351	0.025743159
26	0x3e351ea8	0.17687476
27	0x3c92374f	0.017848639
28	0x3c0039c1	0.00782627
29	0x3d4fa66a	0.050695814
30	0x3d2f0d90	0.042737544
31	0x3d8b2dd8	0.067958534
32	0x3c67dce9	0.01415179
33	0xbdacf6b7	-0.084454946
34	0x3d580872	0.05274243
35	0x3e26a7d3	0.16274957
36	0xbd5f38fd	-0.054497708
37	0x3da69c8c	0.08135328
38	0x3dd9fa3a	0.1064343
39	0xbd4663aa	-0.04843489
40	0x3dbd950c	0.09256944
41	0xbd78e81f	-0.060768243
42	0x3d5d3633	0.054006767
43	0x3e3130c0	0.17303753
44	0x3bd9dd1a	0.006648672
45	0x3deea0cb	0.116517626
46	0x3d0caabf	0.034342524
47	0xbde8dc1e	-0.11370109
48	0xbd93c1df	-0.07214712
49	0x3d7ff8d7	0.06249317
50	0xbd87776d	-0.066145755
51	0x3d8ecb2c	0.06972346
52	0xbdbf7c5a	-0.0934989
53	0x3e0e26ad	0.13881941
54	0x3d733f46	0.059386514
55	0xbad3cda5	-0.0016159309
56	0xbd57243c	-0.05252479
57	0x3c9b926e	0.018990722
58	0x3c1940d1	0.009353832
59	0xbd7cd568	-0.061726958
60	0x3d3df187	0.046372917
61	0xbddae5e8	-0.106883824
62	0x3de48625	0.111583985
63	0xbe16815b	-0.14697783
64	0x3c3a8a9e	0.011385588
65	0xbd828b50	-0.06374228
66	0xbdba618a	-0.09100635
67	0x3d154455	0.03644212
68	0x3b5eb234	0.003398073
69	0x3dc37b1b	0.09544965
70	0x3e10497e	0.14090535
71	0x3d6e297a	0.058145024
72	0xbc1bc375	-0.00950705
73	0xbc491c5f	-0.012274831
74	0xbc24ef1c	-0.010066774
75	0x3cc9e5fb	0.024645796
76	0x3df52bc3	0.119712375
77	0xbdf99a45	-0.12187628
78	0xbda12ea3	-0.078702234
79	0x3d6275df	0.055288192
80	0xbdea68c1	-0.114457615
81	0xbd9ceb57	-0.07662075
82	0xbe1d76d0	-0.15377355
83	0x3d295171	0.041337434
84	0xbdcfb051	-0.101410516
85	0xbd43f98c	-0.04784541
86	0x3df9e555	0.12201945
87	0x3e404f60	0.18780279
88	0x3da554a9	0.08072788
89	0x3da1df41	0.079039104
90	0x3da7adbc	0.08187434
91	0xbd828bfb	-0.063743554
92	0x3d3c46ff	0.045966145
93	0xbe287682	-0.16451457
94	0xbdc3c2ab	-0.09558614
95	0xbd90811f	-0.07055878
96	0x3d01e7d3	0.031715225
97	0xbe1028d1	-0.1407807
98	0x3d08ad21	0.033368234
99	0xbcace0ab	-0.021103224
100	0xbd96b0ab	-0.073579155
101	0x3d81d06d	0.06338582
102	0x3dc128b8	0.094315946
103	0xbde79a40	-0.11308718
104	0x3cd9c3d4	0.026582636
105	0xbb600f9e	-0.0034188996
106	0x3df5a15c	0.119936675
107	0x3b627591	0.0034554938
108	0xbcc8fe57	-0.024535341
109	0x3dd35baf	0.10320222
110	0x3b992704	0.0046738405
111	0x3ca18c04	0.019720085
112	0x3d4c2283	0.0498376
113	0x3db048f6	0.08607666
114	0xbc84ff37	-0.016234977
115	0xbdb0956a	-0.086222485
116	0x3df6a49a	0.12043114
117	0x3ca8fb59	0.020627664
118	0x3dbb6b0d	0.09151278
119	0xbe1be84e	-0.15225336
120	0xbd7b7d8b	-0.061399024
121	0xbe324400	-0.17408752
122	0x3c760ce5	0.015017723
123	0x3cf9f262	0.030511085
124	0xbd508dea	-0.05091659
125	0xbb38ca46	-0.0028196736
126	0xbd3c6202	-0.045991905
127	0x3d50f37f	0.051013466
128	0x3a67da18	0.0008844449
129	0x3becec06	0.0072302846
130	0xbe0fe87d	-0.14053531
131	0xbd14e20d	-0.03634839
132	0x3dbce724	0.09223774
133	0x3dd51367	0.10404091
134	0xbd19cdb9	-0.037549708
135	0x3d601849	0.05471066
136	0xbab44d26	-0.0013755902
137	0xbdd5cd73	-0.10439577
138	0xbe33bb11	-0.17551829
139	0x3d8d5ad8	0.06902093
140	0xbe1cd4c2	-0.15315536
141	0xbe1198f4	-0.14218503
142	0x3dd6fbfc	0.10497281
143	0xbd3293d6	-0.04359802
144	0xbe1cf3fd	-0.15327449
145	0x3da1f29a	0.07907601
146	0xbd295bd6	-0.041347347
147	0x3dfaa60c	0.12238702
148	0x3d835b39	0.06413884
149	0xbcc6954f	-0.024241118
150	0x3dc7cfc6	0.097564265
151	0xbc272e6e	-0.010203941
152	0x3c0ecaa9	0.00871531
153	0x3ca363e0	0.019945085
154	0xbcccdac6	-0.025006663
155	0x3c8411bf	0.016121743
156	0x3de45842	0.11149646
157	0xbdf6549a	-0.12027855
158	0xbdd14bd9	-0.10219545
159	0x3e147a58	0.14499795
160	0x3df0ff4f	0.11767446
161	0xbd214c3e	-0.03937935
162	0x3d11e25f	0.035616275
163	0xbc2910fa	-0.010318989
164	0x3cd2ec2d	0.025747383
165	0x3c03c551	0.008042649
166	0x3d23e726	0.040015362
167	0xbcbfe61a	-0.02342515
168	0x3bd98617	0.006638299
169	0x3cc8cfb8	0.02451311
170	0xbd6e2877	-0.05814406
171	0x3e0261e5	0.12732656
172	0x3e04a117	0.12952076
173	0x3de109c8	0.10988194
174	0xbb1bdcf2	-0.0023782817
175	0xbe45e90b	-0.1932718
176	0xbd9424b9	-0.07233567
177	0x3e0a2f05	0.13494499
178	0xbc17f54e	-0.009274794
179	0xbd073b7c	-0.033015713
180	0x3de8dad1	0.11369861
181	0xbceccf20	-0.028907359
182	0xbd4bb79f	-0.04973566
183	0xbe221066	-0.15826568
184	0x3d8aa82d	0.06770358
185	0xbdfc9ac8	-0.1233421
186	0x3d837c30	0.06420171
187	0xbdab0bf0	-0.08351886
188	0x3b2c1399	0.0026256798
189	0x3df4c4b1	0.119515784
190	0xbdebc8ca	-0.11512907
191	0xbbb54bee	-0.005532733
192	0xbcbc729b	-0.023003867
193	0xbd9171f9	-0.07101817
194	0xbda5d859	-0.08097906
195	0x3d1b372f	0.037894424
196	0x3d9774cc	0.07395324
197	0xbe2dfed5	-0.16991742
198	0x3d926dd6	0.07149856
199	0x3e18f19c	0.14935917
200	0x3d2cda79	0.04220054
201	0xbd84c825	-0.06483487
202	0xbe24257b	-0.16029923
203	0x3e2449fe	0.16043851
204	0x3d82974f	0.06376516
205	0xbdd51dfe	-0.10406111
206	0xbc2fe8ce	-0.010736657
207	0xbcd890ec	-0.026436292
208	0x3c0885a1	0.008332641
209	0xbd63b8ea	-0.05559627
210	0xbdf243de	-0.11829351
211	0xbd9f2c55	-0.077721275
212	0xbe0263f4	-0.12733442
213	0x3c8fe313	0.017564332
214	0xbd0964af	-0.033543285
215	0x3e11f0c7	0.14252006
216	0xbe0377eb	-0.12838714
217	0xbd9917ee	-0.07475267
218	0x3daf098b	0.08546742
219	0xbd7faa94	-0.062418535
220	0xbdce52f2	-0.10074414
221	0x3d8502a0	0.06494641
222	0x3d496138	0.04916498
223	0xbcfb60c9	-0.0306858
224	0x3e1e1a98	0.15439832
225	0xbe1c0714	-0.15237075
226	0x3c4fe33c	0.012688454
227	0x3e1b2c4b	0.15153615
228	0xbd93cd47	-0.07216888
229	0xbd3d23c9	-0.046176706
230	0xbbc11ed2	-0.0058935666
231	0x3df09a0b	0.11748131
232	0x3cf273d9	0.029596256
233	0xbd9b9e88	-0.07598597
234	0x3d935074	0.071930796
235	0xbd89e298	-0.067326725
236	0x3e34f6d2	0.1767228
237	0xbdd9a93c	-0.10627982
238	0x3d3f4295	0.046694357
239	0xbe1275b0	-0.14302707
240	0x3ce6baca	0.02816524
241	0x3d4fb205	0.050706882
242	0xbdb2ce78	-0.08730787
243	0xbd4785fd	-0.048711766
244	0x3e22b93f	0.15890978
245	0xbd933bc2	-0.07189132
246	0xbd8871bb	-0.06662317
247	0x3d403bb7	0.04693195
248	0xbddb8182	-0.10718061
249	0xbd788584	-0.060674205
250	0xbd30b835	-0.043144424
251	0x3b97fb4e	0.004638112
252	0xbd7c22dc	-0.061556682
253	0x3cce0a52	0.025151405
254	0x3dc44359	0.09583158
255	0x3c59ea22	0.0133004505

lstm.bias_ih_l0 f4 [256]
0	0x3e50eda4	0.20403153
1	0x3e107900	0.14108658
2	0x3db2385c	0.08702156
3	0x3d062ce8	0.03275767
4	0x3d2e21a2	0.042512543
5	0x3d572381	0.052524094
6	0xbd23c8f9	-0.039986584
7	0x3e069313	0.13142042
8	0xbc634ac2	-0.013872804
9	0x3ddc62c1	0.10761023
10	0x3e5b322a	0.21405855
11	0x3e271ec8	0.16320336
12	0xbcb0642b	-0.021532139
13	0xbc9dc88b	-0.019260665
14	0xbbf5be28	-0.007499475
15	0x3e351402	0.17683414
16	0x3aaeaea3	0.0013327192
17	0xbd96b200	-0.073581696
18	0x3e09c41b	0.13453715
19	0x3ddd7804	0.10813907
20	0x3e35222a	0.17688814
21	0x3e32d329	0.17463364
22	0x3de00e41	0.10940219
23	0xbd166ced	-0.036724973
24	0x3d71a7b6	0.058997832
25	0x3ab77db2	0.0013999252
26	0x3e03ab04	0.12858206
27	0x3defbd27	0.11706
28	0x3de4d899	0.11174125
29	0xbd448cb2	-0.04798574
30	0x3df92fde	0.12167333
31	0x3e155e46	0.14586744
32	0x3d1cd26a	0.038286604
33	0x3b28b10d	0.0025740296
34	0xbc63a505	-0.013894324
35	0x3d7b5386	0.06135895
36	0xbd470dcd	-0.048597146
37	0xbd306ca6	-0.043072365
38	0x3e098d57	0.13432823
39	0x3dac63e4	0.0841749
40	0x3d959a73	0.073048495
41	0x3dc930a3	0.0982373
42	0x3e2980ea	0.16553083
43	0x3d80019e	0.062503085
44	0x3d58f69d	0.052969564
45	0x3bfc9524	0.0077082086
46	0x3e0ef5cb	0.1396095
47	0x3e2c5f67	0.16833268
48	0x3e2f9f8c	0.17150706
49	0xbb4dac86	-0.003138335
50	0x3e36a3b7	0.1783589
51	0x3dfc5f17	0.123228244
52	0x3ba25eb4	0.004955137
53	0x3e266927	0.1625105
54	0x3e45701e	0.1928105
55	0x3de76b44	0.11299756
56	0x3e03af9b	0.12859957
57	0x3db44ed5	0.088040985
58	0x3e161323	0.14655738
59	0x3e2020a1	0.15637447
60	0x3e138b76	0.14408669
61	0x3de43098	0.11142081
62	0x3e3ae3cf	0.18250965
63	0xbcf3bea5	-0.029753992
64	0x3e078437	0.1323403
65	0x3d49b3da	0.049243785
66	0x3e495503	0.19661336
67	0x3e3f6ac0	0.18693066
68	0x3d21d4a5	0.039509434
69	0x3d3de67b	0.04636238
70	0xbce31b9e	-0.02772313
71	0x3e3dfdbb	0.18553822
72	0x3d4caf78	0.049972028
73	0x3e6194e2	0.2202945
74	0x3dc59a3c	0.096485585
75	0x3dcf8f6f	0.1013478
76	0xbd4215f1	-0.047384206
77	0x3db6dcd6	0.0892884
78	0x3dde1986	0.10844712
79	0x3ddcbdda	0.10778399
80	0x3e2236fa	0.15841284
81	0x3e1c8c42	0.15287879
82	0x3e1401ac	0.14453763
83	0x3e1185ea	0.1421124
84	0x3bd74de0	0.0065705627
85	0x3e08859b	0.13332216
86	0xbab3848c	-0.0013696118
87	0x3d153ab7	0.036432948
88	0x3a9fe920	0.0012200214
89	0x3d8673c7	0.065650515
90	0x3e6e93de	0.23298594
91	0xbc403e7b	-0.0117336465
92	0x3db347ca	0.08753927
93	0x3dceb0e7	0.10092335
94	0x3d816b30	0.063192725
95	0x3d9ff268	0.07809907
96	0x3df26f80	0.11837673
97	0x3c944089	0.018097179
98	0x3e33a750	0.17544293
99	0x3df2db2a	0.118582085
100	0x3e49033f	0.19630145
101	0x3e04959a	0.12947693
102	0x39e569ca	0.00043757103
103	0xbbd7e8dc	-0.0065890383
104	0x3e06936b	0.13142173
105	0xbc57dbb1	-0.013174937
106	0xbc784004	-0.015151981
107	0x3e3acacd	0.18241425
108	0x3e300cee	0.17192432
109	0x3e1df78a	0.1542646
110	0x3e21d8ae	0.15805313
111	0x3dce6402	0.10077669
112	0x3e5a85ff	0.21340178
113	0x3db2d50e	0.08732043
114	0x3d94c00b	0.07263192
115	0x3e5c4f6f	0.21514677
116	0x3e0c5353	0.1370366
117	0x3b8fce4a	0.0043886052
118	0x3e47df1d	0.19518705
119	0x3e0138c2	0.12619308
120	0xbbf1b8c4	-0.007376762
121	0x3ba14ff8	0.004922863
122	0x3da3b817	0.07994097
123	0x3d7490c0	0.059708357
124	0x3e5f0645	0.21779735
125	0x3e0cd984	0.1375485
126	0x3e3e1977	0.18564402
127	0x3d161f0b	0.0366507
128	0xbde9cf6a	-0.11416514
129	0xbd9d8383	-0.076910995
130	0xbda013a6	-0.07816248
131	0x3cb4ceb0	0.022071213
132	0xbdc2c869	-0.095108815
133	0xbdd2ee94	-0.102994114
134	0x3c7be81f	0.015375166
135	0xbca307ff	-0.019901274
136	0x3dda80aa	0.10669072
137	0xbcdf161e	-0.027232226
138	0xbdbbd73e	-0.091719136
139	0x3dc061a2	0.09393622
140	0xbd55f5a9	-0.052236233
141	0x3d93d8ba	0.07219072
142	0x3d4fbd1b	0.050717454
143	0xbd208cc4	-0.039196745
144	0xbd40cf9f	-0.047073003
145	0x3c35a22d	0.011086029
146	0xbd155120	-0.03645432
147	0x3e16afda	0.1471552
148	0xbdaac20b	-0.08337792
149	0x3d501b7c	0.05080746
150	0x3df94865	0.12172011
151	0x3d1f56fd	0.038901318
152	0xbcb475ba	-0.022028793
153	0x3d9fd959	0.07805128
154	0x3df41ff4	0.11920157
155	0xbbb568a3	-0.0055361553
156	0xbde4e5c3	-0.11176636
157	0x3dc85641	0.097820766
158	0xbdb59c00	-0.08867645
159	0x3c5e07c8	0.01355166
160	0x3e13f263	0.14447932
161	0xbd24dc29	-0.040249024
162	0x3d924d09	0.071435995
163	0x3d85abd5	0.06526915
164	0xbd960dab	-0.07326826
165	0x3c5ff26e	0.01366864
166	0x3db98757	0.09059017
167	0xbdb1cd73	-0.086817645
168	0x3deb77c3	0.11497452
169	0xbd30537c	-0.043048367
170	0xbd790d0f	-0.06080347
171	0x3da55a4d	0.08073864
172	0x3e37acfd	0.17937084
173	0xbbcba7ba	-0.006215063
174	0x3d667255	0.05626138
175	0xbdeda7e4	-0.11604288
176	0xbd9d2a24	-0.07674053
177	0x3db95682	0.09049703
178	0xbc88233c	-0.016618364
179	0x3d417de5	0.047239203
180	0x3dbd7f1f	0.09252762
181	0xbd82fdec	-0.06396088
182	0xbc9e361c	-0.01931291
183	0xbdd6a335	-0.10480348
184	0xbcc0aa11	-0.023518594
185	0xbd97a5d4	-0.07404676
186	0x3d602531	0.05472297
187	0x3e228827	0.1587225
188	0x3ca22758	0.019794151
189	0x3e050526	0.12990245
190	0x3c6b732a	0.014370719
191	0xbd32e0b3	-0.04367132
192	0x3dc3a96a	0.095537975
193	0x3db994e9	0.090616055
194	0x3e0600a8	0.13086188
195	0x3e4f4e50	0.20244718
196	0xbcf0dede	-0.029403146
197	0x3ce4bfe8	0.02792354
198	0x3e220941	0.15823843
199	0x3dd41078	0.10354704
200	0x3bb33069	0.0054684174
201	0x3e31606c	0.17321938
202	0x3e5c2f59	0.21502437
203	0x3e424946	0.18973264
204	0x3e0f7d0f	0.1401255
205	0x3da6c8e7	0.08143788
206	0x3d5262b5	0.051363666
207	0x3a293278	0.0006454359
208	0x3d9b3dbf	0.075801365
209	0x3e36b717	0.1784328
210	0x3dcbe5c6	0.09955935
211	0x3d36d7db	0.04463945
212	0x3d06ecbb	0.032940608
213	0x3ce256ad	0.02762922
214	0x3e14d197	0.14533077
215	0x3e1041e9	0.14087643
216	0x3e0a0d6c	0.13481683
217	0x3db7ea7f	0.089802735
218	0x3e723ac8	0.23655236
219	0x3e260403	0.16212468
220	0x3e39a8c6	0.18130788
221	0x3d1953be	0.03743338
222	0x3d79b0ed	0.060959745
223	0x3e17614e	0.14783213
224	0x3de7c50f	0.11316883
225	0x3de94414	0.11389938
226	0x3e65722e	0.22406837
227	0x3e481106	0.19537744
228	0x3e062184	0.13098723
229	0x3c52aefa	0.0128591005
230	0x3d0096b6	0.03139373
231	0x3c8e1f8f	0.017349033
232	0x3d971613	0.07377257
233	0x3e47c37b	0.19508164
234	0x3dba727b	0.09103867
235	0xbbce2bc3	-0.006291838
236	0x3dc51e08	0.09624869
237	0x3d851e21	0.06499887
238	0x3cad2e52	0.021140251
239	0x3e844fa3	0.25842008
240	0x3e0ecdac	0.13945645
241	0x3d4092df	0.047015067
242	0x3e5517f9	0.20809926
243	0x3d08a948	0.033364564
244	0x3d3c7d20	0.046017766
245	0x3d0c9384	0.03432037
246	0x3e41b803	0.18917851
247	0x3d819049	0.06326348
248	0xbc3535a9	-0.011060157
249	0x3e4fdf7f	0.203001
250	0x3dbef0f5	0.09323303
251	0xbc231655	-0.009954055
252	0x3e229e33	0.1588066
253	0x3db77750	0.08958304
254	0x3de8d47c	0.11368653
255	0x3d211a8c	0.039331958

lstm.bias_hh_l0 f4 [256]
0	0x3e2552f3	0.16144924
1	0x3dc0590d	0.09391985
2	0xbccd3645	-0.025050292
3	0x3e3132c1	0.17304517
4	0x3d6e3fa2	0.058166154
5	0xbc89a381	-0.016801598
6	0xbb154418	-0.0022776183
7	0x3e3de77a	0.18545333
8	0xbda22af6	-0.079183504
9	0x3b1e0153	0.0024109676
10	0x3d888d82	0.066676155
11	0x3d919f26	0.07110433
12	0x3e08b9be	0.13352105
13	0x3d5b1bdd	0.05349337
14	0x3d8e32fe	0.0694332
15	0x3e08e69f	0.13369225
16	0x3e1b59a0	0.15170908
17	0x3ac06a1b	0.0014680059
18	0x3dd09fb7	0.10186713
19	0xbd8748c7	-0.06605678
20	0x3e25240a	0.16127029
21	0x3d82b8ab	0.06382879
22	0x3e2861e8	0.16443598
23	0x3dbccaa3	0.092183374
24	0x3cc1e1bd	0.02366721
25	0xbd7d0492	-0.061771937
26	0x3bf57309	0.00749052
27	0x3dcb75fa	0.099346116
28	0x3dde032f	0.10840451
29	0x3e14a657	0.14516579
30	0x3db90e72	0.09035958
31	0x3e2d66ad	0.16933699
32	0xbd232778	-0.039832562
33	0x3defd8e6	0.11711292
34	0x3e1ee894	0.15518409
35	0xbc6d7cb0	-0.01449506
36	0x3d7d50cf	0.061844643
37	0x3e0c8625	0.13723047
38	0xbd7246a8	-0.059149414
39	0x3e16ae9a	0.14715043
40	0x3d4493ef	0.047992643
41	0x3af9156a	0.0019003574
42	0x3d26752b	0.040639084
43	0x3db5b117	0.08871668
44	0x3dbb5a73	0.09148111
45	0xbd072d41	-0.033002142
46	0x3c2dd360	0.010609478
47	0x3e2208ab	0.15823619
48	0x3cc87cff	0.024473665
49	0xbd5c41b9	-0.053773616
50	0x3dc89459	0.0979392
51	0x3d7016a8	0.058615357
52	0x3e3f878a	0.18704048
53	0x3cb2bfe5	0.021820018
54	0x3e25e4fe	0.16200635
55	0x3db2ab1c	0.08724043
56	0x3d02de93	0.031950545
57	0x3e1180c9	0.14209284
58	0x3df7d729	0.121015854
59	0x3df5b9fa	0.11998363
60	0x37935b88	1.7566388e-05
61	0x3d2a22b6	0.04153701
62	0x3d9454f4	0.07242766
63	0x3ca7c7ca	0.020481009
64	0x3e07c7cb	0.13259809
65	0x3e3386a0	0.17531824
66	0x3e054597	0.13014828
67	0x3e2529a8	0.16129172
68	0x3e080ed3	0.13286905
69	0x3d8d6de2	0.06905724
70	0x3b03747d	0.0020058446
71	0x3e43db4b	0.19126622
72	0x3e147adb	0.1449999
73	0x3e0d9e17	0.13829838
74	0x3e2a1ddd	0.16612954
75	0x3db884c2	0.090096965
76	0x3dc3c62c	0.09559283
77	0x3d96c169	0.07361109
78	0x3e41f44d	0.1894085
79	0x3d9a30d7	0.07528847
80	0x3ddf1133	0.10891952
81	0x3daf8ddb	0.08571979
82	0x3e26f4c9	0.16304316
83	0x3ccebb68	0.025235847
84	0x3bf42e56	0.0074518127
85	0x3dd127b9	0.102126546
86	0x3e152055	0.14563115
87	0x3ceb9e46	0.028761994
88	0x3df2d6c5	0.1185737
89	0x3d473eb8	0.048643798
90	0x3e69aaea	0.22819105
91	0x3d65a881	0.0560689
92	0xbc9b63d1	-0.018968495
93	0x3e0fae26	0.14031276
94	0x3dd1f4df	0.102517836
95	0x3de3e6fc	0.11128041
96	0x3e2ee956	0.17081198
97	0x3cd43a26	0.025906634
98	0x3e25187d	0.16122623
99	0x3d8450f0	0.0646075
100	0x3e3a0145	0.18164547
101	0xbcfbd768	-0.030742362
102	0x3deb4404	0.11487582
103	0x3944ee4c	0.00018780789
104	0x3dc06880	0.09394932
105	0x3d783b39	0.060603354
106	0xbc82c8a0	-0.015964806
107	0xbcb51399	-0.022104071
108	0x3e0b77a2	0.13619855
109	0x3e3c4f02	0.18389514
110	0x3d337e57	0.04382166
111	0x3e10c0fa	0.14136115
112	0x3d82088e	0.06349288
113	0x3e0fdc5d	0.14048906
114	0x3df0285b	0.11726447
115	0x3d2332ae	0.039843254
116	0x3e527e06	0.20555887
117	0x3df64016	0.12023942
118	0x3e2563c8	0.16151345
119	0x3d937906	0.07200818
120	0x3b95c156	0.0045701666
121	0xbd098ac5	-0.033579607
122	0xbc98bbb9	-0.0186442
123	0x3e179a4e	0.14804956
124	0x3bf44110	0.007454045
125	0x3e55f316	0.20893511
126	0xbc89bc38	-0.016813383
127	0xbc241846	-0.010015553
128	0xbe244ff4	-0.16046125
129	0x3dd341b1	0.10315264
130	0xbce71da6	-0.02821238
131	0xbd8ad2f9	-0.06778521
132	0xbdd537bd	-0.10411022
133	0xbd2bec8b	-0.04197363
134	0x3d9effe2	0.077636495
135	0x3e0dcd22	0.13847783
136	0x3d327c9b	0.043575864
137	0x3d381dbf	0.044950243
138	0x398cd201	0.00026859346
139	0x3db5fdc0	0.088862896
140	0xbc210a54	-0.009829123
141	0xbc2a2e5d	-0.01038703
142	0xbcba9e06	-0.02278043
143	0xbd157be3	-0.0364951
144	0xbc03cee9	-0.008044937
145	0x3d1b0e3e	0.03785538
146	0xbd61199b	-0.05495606
147	0x3b48b4bb	0.0030625302
148	0x3db38ff1	0.08767689
149	0xbe02dd99	-0.12779845
150	0xbcf975e9	-0.030451732
151	0xbd444389	-0.04791597
152	0x3cb85176	0.022499781
153	0x3e1237e1	0.14279129
154	0x3d9cdc96	0.07659261
155	0xbca1b4fa	-0.019739617
156	0xbc01dbea	-0.007925967
157	0xbd148882	-0.036262996
158	0xbe0b5b72	-0.13609102
159	0x3dad9034	0.0847477
160	0xbd3e9274	-0.046526387
161	0xbc863892	-0.016384397
162	0xbda73e25	-0.0816615
163	0x3d1776f9	0.036978696
164	0x3e0bb185	0.13641937
165	0x3dca34f2	0.0987338
166	0xbce36bc5	-0.02776135
167	0xbd22e3d1	-0.039768044
168	0x3deb0227	0.1147502
169	0xbc6ce865	-0.014459704
170	0x3d1c5389	0.038165603
171	0xbc87471f	-0.016513405
172	0x3e25b860	0.16183615
173	0x3cb805e9	0.022463756
174	0xbd8ed77a	-0.06974693
175	0xbe05988d	-0.13046475
176	0x3ddd4cba	0.1080565
177	0x3d8818d4	0.066453606
178	0x3df25b9f	0.118338816
179	0x3dbeef17	0.093229465
180	0xbdc7470d	-0.09730349
181	0xbd6f5460	-0.058430076
182	0x3ddd711a	0.10812588
183	0x3d3fdca9	0.046841297
184	0x3db03419	0.08603687
185	0xbda7fea4	-0.08202866
186	0xbe007ffa	-0.12548819
187	0x3decbd14	0.11559501
188	0xbd8dd409	-0.06925208
189	0x3c7dd56a	0.015492776
190	0x3e0c6e6b	0.13713996
191	0xbd76338d	-0.060107756
192	0x3e4b2fac	0.19842404
193	0x3dba1e73	0.09087839
194	0x3e66a60c	0.2252428
195	0x3dbcba40	0.09215212
196	0x3e3278f9	0.1742896
197	0xbb18b02a	-0.0023298361
198	0x3d83b18e	0.0643035
199	0x3e26316f	0.16229795
200	0x3e00d884	0.12582594
201	0x3d87f33d	0.06638191
202	0x3e52bd38	0.20579994
203	0x3e31bfca	0.17358318
204	0x3d195336	0.03743287
205	0x3e4ce026	0.20007381
206	0x3d570ec3	0.052504312
207	0x3d758b53	0.059947323
208	0x3d912798	0.0708763
209	0x3d328224	0.043581143
210	0x3acc0bad	0.0015567444
211	0x3d4ade24	0.049528256
212	0x3de69504	0.11258891
213	0x3e09a9ee	0.1344373
214	0x3d241d32	0.040066905
215	0x3c3358e4	0.010946486
216	0xbb973e69	-0.004615594
217	0x3e45dfce	0.19323656
218	0x3dce9ed7	0.1008889
219	0x3d1a9160	0.037736297
220	0x3d9a547a	0.07535644
221	0xbc193c64	-0.009352777
222	0x3dd0e3cd	0.101996996
223	0x3c95c77f	0.018283604
224	0x3e0959d5	0.13413174
225	0x3da688e0	0.081315756
226	0x3e25608f	0.16150115
227	0x3e3dd971	0.18539979
228	0xbc6bdbad	-0.0143956365
229	0x3e0907b5	0.13381846
230	0x3ce2b226	0.027672838
231	0xbcc7d734	-0.024394609
232	0x3caa881b	0.020816853
233	0xbbe5ac11	-0.0070090373
234	0x3dcf7396	0.10129468
235	0x3deb74a5	0.114968576
236	0x3de5cd11	0.11220754
237	0x3e180f33	0.14849548
238	0x3df5f934	0.12010422
239	0x3d5d5cd3	0.054043602
240	0x3e1b6667	0.15175782
241	0x3ca25369	0.019815164
242	0xbc21e7f9	-0.009881967
243	0x3be738ac	0.0070563164
244	0x3e7a4d4a	0.24443546
245	0x3e215a4e	0.15757105
246	0x3e517e9b	0.20458452
247	0xbd2a0a98	-0.04151401
248	0x3cc3ced0	0.023902327
249	0x3de104d6	0.109872505
250	0x3dd8a992	0.10579218
251	0xbbfd6a93	-0.007733652
252	0x3e174a5c	0.1477446
253	0x3e39b7ef	0.18136571
254	0x3d56d0ca	0.05244521
255	0x3d87c5df	0.06629538

lstm.weight_ih_l0_reverse f4 [256, 34]
0	0x3c11bcfe	0.008895157
1	0x3d99235e	0.07477449
2	0xbe005371	-0.1253183
3	0xbd314558	-0.043279022
4	0xbdf2bb80	-0.11852169
5	0xbd90bf73	-0.07067766
6	0xbdb794d1	-0.08963931
7	0x3d98d0ef	0.07461726
8	0x3d7a6398	0.061130136
9	0x3c9c1e12	0.019057307
10	0xbd9a3375	-0.07529346
11	0x3dd79eee	0.1052836
12	0xbd84db25	-0.06487111
13	0xbd85601c	-0.06512472
14	0x3d9b3010	0.075775266
15	0x3cfb76bd	0.030696267
16	0x3dd79c64	0.10527876
17	0xbd9ee797	-0.07759016
18	0x3ca9fb6f	0.020749776
19	0x3d22ad66	0.039716147
20	0xbd5e5d5a	-0.054288246
21	0xbdb72f34	-0.0894455
22	0xbc91619e	-0.017746743
23	0xbbf10f2e	-0.007356546
24	0xbd1980c1	-0.037476305
25	0xbdeda4b5	-0.11603681
26	0x3c3064be	0.010766206
27	0xbdc272c7	-0.09494548
28	0xbdc9acdd	-0.09847424
29	0x3daf9b04	0.08574489
30	0x3d9bb4e7	0.07602864
31	0x3ab08f12	0.0013470373
32	0x3b62500e	0.003453258
33	0xbe0cbc06	-0.137436
34	0x3caf1931	0.021374317
35	0x3d9c9d25	0.076471604
36	0xbd7921f9	-0.060823414
37	0x3e240b96	0.16020045
38	0x3c4d4d43	0.012530628
39	0xbd0694e2	-0.03285683
40	0xbd72e171	-0.05929703
41	0x3daa3f8d	0.083129026
42	0xbd7b6c87	-0.061382797
43	0xbdb7f336	-0.08981936
44	0xbda2a15c	-0.07940933
45	0x3c48f783	0.012266043
46	0xbdb4e31b	-0.088323794
47	0x3c4adbe5	0.0123815285
48	0x3ddd9e21	0.10821176
49	0x3dea3a06	0.11436848
50	0x3caa73a5	0.020807097
51	0x3d786017	0.060638513
52	0xbcce1491	-0.025156291
53	0x3d1bf03c	0.038070902
54	0xbdd5b098	-0.10434073
55	0x3d8dd027	0.069244675
56	0xbdf8daf2	-0.121511355
57	0x3da64b35	0.08119813
58	0xbde8a127	-0.11358862
59	0x3d2bf380	0.041980267
60	0x3e035d6e	0.1282861
61	0xbccdfa19	-0.02514367
62	0xbd9ea0fc	-0.07745549
63	0xbdb93afa	-0.09044452
64	0xbda25428	-0.07926208
65	0x3d3ba62a	0.045812763
66	0xbe2cfb32	-0.16892698
67	0xbe050498	-0.12990034
68	0x3dd89cec	0.105768055
69	0xbe0156d1	-0.12630774
70	0xbc2dde39	-0.010612064
71	0xbd9cf142	-0.07663204
72	0xbd22af05	-0.039717693
73	0xbd8ecf36	-0.06973116
74	0xbc246407	-0.010033614
75	0xbdfb7ffe	-0.12280272
76	0xbb018575	-0.0019763384
77	0xbb5f8f52	-0.0034112525
78	0x3dbefc26	0.09325437
79	0x3bd1b947	0.0064002606
80	0x3dcb8baf	0.09938752
81	0xbd8995f8	-0.067180574
82	0x3da96b6b	0.082724415
83	0x3d1242be	0.03570818
84	0x3e034136	0.12817845
85	0xbdd3e278	-0.1034593
86	0x3cc7c1c4	0.024384387
87	0x3cd97fb6	0.026550155
88	0x3d43cc13	0.047802042
89	0x3dcc6f7e	0.09982203
90	0xbc4558ee	-0.012045128
91	0xbdef6f6a	-0.116911724
92	0xbd9e0c8a	-0.077172354
93	0x3d11403d	0.035461653
94	0xbcd571da	-0.026055265
95	0x3dc78fc0	0.09744215
96	0xbdab3a5b	-0.0836074
97	0xbd99ac6e	-0.075035915
98	0x3d97a9b4	0.07405415
99	0x3d73ad66	0.059491538
100	0x3d8a14f1	0.067422755
101	0x3d6c22e5	0.057650466
102	0x3df32172	0.118716136
103	0xbd96b5f1	-0.07358921
104	0xbdb1ee18	-0.08687991
105	0x3dbc45c5	0.09192995
106	0xbd3b13a3	-0.045673024
107	0xbc5ab2e4	-0.013348315
108	0xbdb258d3	-0.08708348
109	0x3ab6a490	0.0013934541
110	0xbda9afaa	-0.082854584
111	0xbda88fe5	-0.08230571
112	0xbd375c62	-0.044765837
113	0xbdcd111a	-0.100130275
114	0x3e19f7a1	0.15035869
115	0x3d0eb2ae	0.03483837
116	0xbd1b9dfd	-0.037992466
117	0x3aef5db3	0.0018262177
118	0x3d8e67b1	0.06953371
119	0xbd126dcf	-0.035749253
120	0xbe0b3995	-0.13596185
121	0x3da333c7	0.0796886
122	0x3d816819	0.06318683
123	0x3d035f6c	0.032073423
124	0xbd9b0ccb	-0.075707994
125	0xbdb2c6fb	-0.08729359
126	0xbd5b1cd8	-0.053494304
127	0xbd380e61	-0.044935588
128	0xbd338e05	-0.043836612
129	0x3d1c1191	0.03810269
130	0xbd5f5e1f	-0.05453312
131	0x3d6a184b	0.057152074
132	0x3d9561a1	0.07294012
133	0xbd24059c	-0.040044412
134	0xbdd4e179	-0.10394568
135	0x3c9b54eb	0.01896139
136	0x3daca290	0.08429444
137	0xbdc1c0c1	-0.09460593
138	0xbcf28c29	-0.02960785
139	0xbdcf81b3	-0.1013216
140	0x3dbfb9ec	0.09361634
141	0xbd7590ce	-0.05995255
142	0xbc526465	-0.012841319
143	0xbd524d9b	-0.05134354
144	0xbd494184	-0.049134746
145	0xbcd996c3	-0.026561147
146	0xbdf9dcde	-0.1220033
147	0xbd94f610	-0.07273495
148	0x3dca04d4	0.09864202
149	0xbdd0a725	-0.1018813
150	0x3d97026e	0.0737351
151	0xbdce59c3	-0.100757144
152	0xbd84199a	-0.064501956
153	0x3c894770	0.016757697
154	0xbd4ac1bb	-0.049501162
155	0x3dc1ec0f	0.09468853
156	0x3d596d8e	0.053082995
157	0x3e0007c3	0.12502961
158	0x3dfc53b8	0.123206556
159	0x3d384e48	0.04499653
160	0x3de0a634	0.10969201
161	0xbda74082	-0.08166601
162	0xbd60581e	-0.054771535
163	0x3de0f2fb	0.10983845
164	0xbc415249	-0.0117994035
165	0x3d8fcd2e	0.07021557
166	0x3cbfaff7	0.023399336
167	0x3c0cc3cc	0.0085916035
168	0xbcbaa36a	-0.022783
169	0xbd5ce34c	-0.053927705
170	0xbdf95039	-0.121735044
171	0xbdd1717c	-0.102267236
172	0x3d955475	0.072914995
173	0x3d2f6f75	0.042830903
174	0xbdccad4b	-0.099939905
175	0xbdb2e80b	-0.08735665
176	0xbda267d1	-0.07929958
177	0x3d4aa292	0.049471445
178	0xbc6e8586	-0.014558202
179	0x3cb1bc1c	0.021696143
180	0xbd300f24	-0.04298319
181	0x3d9b980b	0.07597359
182	0xbcbbe60e	-0.022936847
183	0x3d4fda12	0.050745077
184	0x3d40b553	0.047047924
185	0x3d90a44c	0.07062587
186	0x3e1136e7	0.141811
187	0xbc4ad3da	-0.012379611
188	0x3d59b05c	0.053146705
189	0xbd058d68	-0.03260556
190	0x3d8627cb	0.06550559
191	0x3dc7e1e4	0.09759882
192	0xbce2b6fd	-0.027675146
193	0x3daff5d5	0.085918106
194	0x3dac37bc	0.08409068
195	0xbdecd029	-0.11563141
196	0x3db55f5d	0.0885608
197	0xbda9e499	-0.08295555
198	0xbd0ccb76	-0.034373723
199	0xbdb33267	-0.08749848
200	0x3d15f783	0.036613
201	0xbd868508	-0.065683424
202	0x3daa743b	0.083229505
203	0xbdfc4326	-0.12317495
204	0x3d3eec14	0.04661186
205	0x3d154774	0.036445096
206	0xbc93b526	-0.018030714
207	0xbdaf9da2	-0.08574988
208	0x3d821714	0.06352058
209	0x3cc7e4cc	0.024401091
210	0x3d3cba9d	0.046076406
211	0xbdbfbfe5	-0.09362773
212	0xbdf899d5	-0.12138716
213	0xbe05f25c	-0.13080734
214	0xbde83d19	-0.113397785
215	0x3e2d0d4e	0.16899607
216	0xbd57a319	-0.052645776
217	0xbdeab942	-0.114611164
218	0xbd89394e	-0.06700383
219	0xbd939384	-0.07205871
220	0x3d4aeb65	0.049540896
221	0xbdb81f9c	-0.08990404
222	0xbdb64b92	-0.08901133
223	0xbdbcb233	-0.09213676
224	0xbc6e995f	-0.014562934
225	0xbd2f0fb3	-0.04273958
226	0xbc82001d	-0.015869195
227	0xbc81375c	-0.015773468
228	0xbdcab0a4	-0.09896973
229	0xbd2822c3	-0.041048776
230	0xbdfea133	-0.1243309
231	0x3c0907c7	0.008363671
232	0x3c67599f	0.014120488
233	0x3d77c198	0.06048736
234	0x3c4c12c0	0.012455642
235	0x3de51e0a	0.1118737
236	0x3ded4ca6	0.11586885
237	0x3d0fd977	0.0351195
238	0x3c54967e	0.012975333
239	0x3d9b38a9	0.075791664
240	0xbd28694e	-0.04111605
241	0xbba9b54a	-0.005179082
242	0xbc50146e	-0.012700183
243	0x3db2184e	0.08696042
244	0xbcdcdc9f	-0.02696067
245	0xbd6c5ba3	-0.05770458
246	0xbd93f483	-0.07224371
247	0xbd1f2c6f	-0.038860735
248	0xbc3af35a	-0.011410559
249	0xbd69a5c7	-0.057042863
250	0xbd6a7002	-0.057235725
251	0xbd98af07	-0.07455259
252	0xbc8d8901	-0.017277243
253	0xbd11fa76	-0.03563925
254	0x3d83fb3a	0.06444402
255	0xbdfcc2c3	-0.12341835

lstm.weight_hh_l0_reverse f4 [256, 64]
0	0x3cb64b99	0.022252845
1	0x3e15f9d3	0.14646082
2	0xbe31bf80	-0.17358208
3	0xbd3d947f	-0.046284195
4	0x3d0283c9	0.03186396
5	0x3d9ec81a	0.0775301
6	0x3ddc8209	0.1076699
7	0xbc31f9aa	-0.010862747
8	0x3d429385	0.047503967
9	0xbcebd87a	-0.028789748
10	0x3da75f6e	0.08172499
11	0x3df4cfa9	0.119536705
12	0x3e18100f	0.14849876
13	0xbd04bc84	-0.032406345
14	0xbda48b76	-0.080344126
15	0xbe2efac8	-0.17087853
16	0x3d800c79	0.06252379
17	0xbd8ebc61	-0.06969524
18	0xbd5c94c0	-0.053852797
19	0x3db136a1	0.08652998
20	0x3d4b83dd	0.0496863
21	0xbd8dfda8	-0.06933147
22	0x3ded88b7	0.11598342
23	0xbde6a9ab	-0.1126283
24	0xbd815241	-0.06314517
25	0x3e110a93	0.1416419
26	0xbd270216	-0.040773474
27	0xbbcfbfc7	-0.0063400003
28	0xbdbda3db	-0.092597686
29	0xbcb9c46c	-0.022676669
30	0x3c75adc3	0.014995041
31	0x3d8ae93d	0.06782768
32	0x3de5e2f8	0.112249315
33	0xbdaf1337	-0.08548587
34	0xbe162464	-0.1466232
35	0xbd01d342	-0.03169561
36	0x3da373da	0.07981081
37	0xbc77c97f	-0.015123724
38	0x3c57f0cb	0.013179968
39	0x3e2f56dc	0.17122978
40	0x3cd54c11	0.026037248
41	0xbd5d99c9	-0.05410174
42	0xbc7f5815	-0.015584965
43	0x3c8be5fb	0.017077437
44	0xbd59ae6d	-0.05314486
45	0x3c673734	0.014112283
46	0xbd25714e	-0.04039126
47	0xbd8afc39	-0.06786389
48	0x3ddaf363	0.106909536
49	0xbd7a6b68	-0.061137587
50	0x3e13971f	0.14413117
51	0xbc9f1ad7	-0.019421978
52	0x3d030bf9	0.03199384
53	0x3d239c15	0.039943773
54	0xbd5e9ac6	-0.054346822
55	0xbd828b88	-0.0637427
56	0xbcc1413b	-0.023590675
57	0xbd6c1adc	-0.057642803
58	0x3c2d7755	0.010587533
59	0xb8cca596	-9.758321e-05
60	0x3c0ae235	0.0084767835
61	0x3d981370	0.074255824
62	0xbdc5de3d	-0.09661529
63	0x3d0f04ce	0.03491669
64	0x3c875674	0.016520716
65	0xbdb03ef1	-0.08605755
66	0x3a1779f6	0.00057783665
67	0x3c99fab5	0.018796304
68	0xbd9b9eb0	-0.075986266
69	0x3e0c258b	0.13686197
70	0xbdaaf62b	-0.08347734
71	0xbd9ad11a	-0.07559414
72	0xbd505c62	-0.050869353
73	0xbe206e4f	-0.1566708
74	0x3d03664c	0.03207998
75	0x3dd79d92	0.10528101
76	0x3ceb3047	0.028709544
77	0xbde42c1b	-0.11141225
78	0x3c709bc2	0.014685573
79	0x3ddb4ead	0.107083656
80	0x3dd4aabb	0.10384127
81	0x3d9c94f1	0.07645596
82	0x3d16e786	0.03684189
83	0x3d82a9c4	0.063800365
84	0xbd6db6fe	-0.058035843
85	0x3cef3a0d	0.029202485
86	0x3decef43	0.11569073
87	0xbdac0b09	-0.08400542
88	0x3e15e487	0.14637958
89	0x3db113dd	0.08646367
90	0xbd60af63	-0.05485476
91	0xbd2c4d19	-0.042065714
92	0xbce4698a	-0.027882356
93	0xbd9e56c9	-0.07731397
94	0xbd205025	-0.03913893
95	0x3dd736d5	0.10508505
96	0xbcb1a460	-0.021684825
97	0x3d3e0a22	0.046396382
98	0x3cbbc70e	0.022922065
99	0xbe29ff3b	-0.16601269
100	0x3d6810d9	0.056656692
101	0xbe3682a5	-0.17823274
102	0x3e160471	0.14650132
103	0xbdb1b88d	-0.086777784
104	0xbc0609eb	-0.008181076
105	0xbbbd9114	-0.005785117
106	0xbccf3112	-0.025291953
107	0x3e178342	0.14796165
108	0x3d2d0bda	0.04224763
109	0xbe18d3e2	-0.14924577
110	0x3e3b9483	0.18318371
111	0x3cd66136	0.0261694
112	0xbdc718e5	-0.09721545
113	0xbd494b13	-0.049143862
114	0x3dd7afb3	0.10531559
115	0xbdb05f38	-0.086119115
116	0x3d25f724	0.040518895
117	0x3d5ed28e	0.05440002
118	0xbc4723ba	-0.012154514
119	0xbd18e324	-0.037325993
120	0xbda8ece1	-0.08248306
121	0x3da2e2b7	0.07953399
122	0x3d54462a	0.051824726
123	0xbda06279	-0.07831282
124	0xbe28c080	-0.16479683
125	0xbb820e98	-0.003969025
126	0xbdcaeab2	-0.09908046
127	0x3d4e3e41	0.05035234
128	0x3dbd8098	0.09253043
129	0xbc5e84a9	-0.013581433
130	0xbd2fbd58	-0.04290518
131	0x3e1a7661	0.1508422
132	0xbd99c21e	-0.07507728
133	0xbd97ff78	-0.07421774
134	0x3bdce3d1	0.006741025
135	0x3dfbc2c7	0.1229301
136	0xbe065487	-0.13118182
137	0xbde64a70	-0.112446666
138	0x3dbfce46	0.093655154
139	0xbdef3ba9	-0.11681301
140	0x3dd8d758	0.105879486
141	0xbdad7184	-0.08468917
142	0x3e0d0cfc	0.13774484
143	0x3de250d9	0.11050577
144	0xbdc4d3e4	-0.096107274
145	0xbda04f62	-0.07827641
146	0xbdf4acf9	-0.119470544
147	0x3e23b46e	0.15986797
148	0xbda2528b	-0.079259
149	0xbd2a04db	-0.041508537
150	0x3dd07abc	0.1017966
151	0x3c6ebe6a	0.014571765
152	0x3dbdb6cf	0.092633836
153	0x3b9e1aca	0.004824971
154	0x3da09f2e	0.07842861
155	0x3db3ebe7	0.08785229
156	0xbd845f73	-0.06463518
157	0xbdf485db	-0.119395934
158	0x3e1e3c13	0.15452604
159	0x3d4c5a53	0.049890827
160	0x3d0f01c5	0.034913797
161	0xbc40042a	-0.011719743
162	0xbd64b2ea	-0.05583469
163	0xbdd44976	-0.10365574
164	0x3d1a8d80	0.0377326
165	0xbdc318c8	-0.09526211
166	0xbddaf601	-0.10691453
167	0x3dc2723b	0.09494444
168	0xbe2d8183	-0.16943936
169	0xbc5b2c55	-0.013377269
170	0xbcbf8e19	-0.023383187
171	0xbdc30da9	-0.0952409
172	0x3c4f3ede	0.012649266
173	0x3d47bda2	0.048764832
174	0xbd96adba	-0.073573545
175	0xbd1459d7	-0.03621849
176	0xbdaf2c7f	-0.08553409
177	0xbd79e2bc	-0.061007246
178	0x3c9ae886	0.018909704
179	0xbdde5e5e	-0.10857843
180	0x3df034b7	0.117288046
181	0xbda01d22	-0.07818057
182	0x3e3093d7	0.17243896
183	0x3dff315f	0.12460589
184	0x3bc258a0	0.005930975
185	0xbe1875af	-0.14888643
186	0x3daf9683	0.0857363
187	0x3cb9af6b	0.022666654
188	0xbd95e0bc	-0.07318255
189	0x3e1a2920	0.1505475
190	0x3c0e7625	0.00869516
191	0x3db84d87	0.08999162
192	0x3d83964a	0.0642515
193	0x3d02ebeb	0.03196327
194	0x3d93e6bf	0.07221746
195	0xbca86678	-0.020556673
196	0x3d985f29	0.07440025
197	0x3e04df37	0.12975775
198	0xbd4330e7	-0.04765406
199	0x3e381617	0.17977177
200	0xbb6c9968	-0.003610218
201	0x3c3ab22e	0.01139502
202	0x3c70c515	0.0146954255
203	0xbe17697e	-0.14786336
204	0x3e0bc3af	0.13648866
205	0xbdd44e6e	-0.10366522
206	0x3d78191b	0.060570817
207	0xbd7e3f0d	-0.06207185
208	0xbdc2f650	-0.09519637
209	0xbce8c221	-0.02841288
210	0xbdec72d3	-0.115453385
211	0x3da6888a	0.081315115
212	0xbc86b6af	-0.016444532
213	0xbd4aced0	-0.049513638
214	0xbd467c88	-0.048458606
215	0x3cd15ed1	0.025557907
216	0x3e0ae1f1	0.13562752
217	0xbc937edf	-0.018004833
218	0x3d270ad1	0.0407818
219	0xbd292221	-0.041292313
220	0xbe05c431	-0.13063122
221	0x3da435d1	0.08018077
222	0x3e1d811b	0.15381281
223	0x3dab1003	0.08352663
224	0x3e0beab5	0.13663752
225	0x3d14a708	0.036292106
226	0x3dc91fff	0.09820556
227	0xbc8bb537	-0.017054183
228	0x3de0d002	0.10977174
229	0x3da57519	0.08078975
230	0xbb9497fb	-0.004534719
231	0xbdeb3282	-0.11484243
232	0xbdc6b74f	-0.09702932
233	0x3dd27e40	0.102779865
234	0xbe2167b8	-0.15762222
235	0xbca356ee	-0.019938912
236	0x3c8f5555	0.017496744
237	0xbe219c4d	-0.1578228
238	0xba826674	-0.0009948746
239	0xbc79b8a6	-0.0152417775
240	0xbe2b9398	-0.16755521
241	0x3cbf536a	0.023355205
242	0x3ddb5fb5	0.10711614
243	0xbe179526	-0.1480299
244	0x3e02890a	0.12747589
245	0xbdc5b5fb	-0.09653851
246	0xbda2adb1	-0.07943285
247	0x3c4f0269	0.012634852
248	0x3c9f06b2	0.019412372
249	0x3d1da3df	0.038486358
250	0x3da9e16a	0.082949474
251	0x3d1fa0d2	0.03897173
252	0xbda40ac2	-0.080098644
253	0xbc3c5dc8	-0.011496969
254	0xbc668100	-0.014068842
255	0xbd3ebcb5	-0.046566684

lstm.bias_ih_l0_reverse f4 [256]
0	0x3de35435	0.111000456
1	0x3de9e07b	0.114197694
2	0x3e0fd852	0.14047363
3	0x3d11c642	0.035589464
4	0x3d12c35f	0.03583085
5	0x3e06c9c6	0.13162908
6	0x3e2025dc	0.15639442
7	0x3e5647ce	0.20925829
8	0xbc8e41c1	-0.017365338
9	0x3e7e62da	0.24842396
10	0x3e1c7e67	0.15282594
11	0x3dec1656	0.11527698
12	0x3d8dbbc4	0.06920579
13	0x3bd0befe	0.0063704243
14	0x3c176edb	0.009242739
15	0x3e10e432	0.1414955
16	0x3e0e4b0e	0.13895819
17	0x3dc77f5c	0.09741089
18	0x3dc66ed5	0.09689108
19	0x3dd54e11	0.104152806
20	0x3dd75043	0.105133556
21	0x3c2b17cb	0.010442684
22	0x3e31873b	0.17336743
23	0x3d378f7e	0.04481458
24	0x3d976b1e	0.07393478
25	0x3de40296	0.11133306
26	0x3ccd38d2	0.025051508
27	0x3e4e73ba	0.20161334
28	0x3e160097	0.14648663
29	0x3d91c76d	0.071181156
30	0xbb811964	-0.0039397944
31	0x3b9ecab4	0.0048459414
32	0x3e4eaa6e	0.20182201
33	0xbc6e89ca	-0.014559219
34	0x3e32e97e	0.17471883
35	0xbd8e2166	-0.06939964
36	0x3e433799	0.19064178
37	0x3cd6a78c	0.02620294
38	0x3d61bbfa	0.05511091
39	0x3c2f00ae	0.010681314
40	0x3e06ff49	0.13183321
41	0xbc45a394	-0.012062926
42	0x3da3176a	0.0796345
43	0xbc638308	-0.013886221
44	0x3d63eb84	0.055644527
45	0x3da62aec	0.081136554
46	0x3e109468	0.14119112
47	0x3dd6c13e	0.10486077
48	0x3dbbdae9	0.09172613
49	0x3c79e000	0.01525116
50	0x3e3c0ae9	0.18363537
51	0x3c32aa2c	0.01090483
52	0xbd89ad4b	-0.06722506
53	0x3ca6bf6f	0.020354955
54	0x3e0af089	0.1356832
55	0x3e06c180	0.13159752
56	0xbd6fe745	-0.058570165
57	0xbd1989fa	-0.0374851
58	0x3c233af9	0.009962791
59	0x3e485f7e	0.19567677
60	0x3db95023	0.09048488
61	0x3ddc4e95	0.10757176
62	0xbc50341c	-0.012707736
63	0x3d89b7a0	0.06724477
64	0xbbe00e1a	-0.0068376185
65	0x3d6a3800	0.057182312
66	0x3e1ed0b9	0.15509309
67	0x3e1f4cf2	0.15556696
68	0x3df14741	0.11781169
69	0x3cdeef9b	0.027213862
70	0xbc6a0b25	-0.014284884
71	0x3d6fc436	0.05853673
72	0x3d3f0b99	0.04664192
73	0x3d8f26b4	0.06989804
74	0x3da1b021	0.07894922
75	0x3d254535	0.040349204
76	0x3da106c4	0.078626186
77	0x3e5f1fa1	0.21789409
78	0x3da5c771	0.08094681
79	0x3cf714e1	0.030161323
80	0x3daa8b6d	0.083273746
81	0xbd2433aa	-0.040088333
82	0x3d758ab0	0.059946716
83	0x3d7ba26a	0.061434187
84	0x3e303009	0.17205824
85	0x3dfefd15	0.12450615
86	0x3dcf6db3	0.10128345
87	0x3d2695f7	0.04067036
88	0x3d143ece	0.036192708
89	0x3dcded7a	0.10055061
90	0x3e0aae90	0.13543153
91	0x3dd3dc6b	0.10344776
92	0x3dcfe93b	0.10151907
93	0x3e293c7a	0.16526976
94	0x3e7303e1	0.23731948
95	0x3ded854d	0.11597691
96	0x3dd657ba	0.10465951
97	0x3df88a8d	0.121358015
98	0xbd36ab69	-0.044597063
99	0x3debec49	0.11519677
100	0xbcfed749	-0.031108515
101	0x3e163973	0.14670353
102	0xbb9d7647	-0.0048053595
103	0x3e3aecab	0.18254344
104	0xbc6f7e9a	-0.0146175865
105	0x3d878f34	0.06619111
106	0x3da7c5f1	0.08192051
107	0x3d79b8f4	0.0609674
108	0x3e14b772	0.14523104
109	0xbc7c9255	-0.015415748
110	0x3d5dc163	0.054139506
111	0xbb6bd7fc	-0.003598689
112	0xbd0e1f8a	-0.034698047
113	0x3e3f0a42	0.18656257
114	0x3db1df6a	0.08685191
115	0x3df30a92	0.118672505
116	0x3e3242c1	0.17408277
117	0x3d949862	0.07255627
118	0x3e78f8f7	0.24313723
119	0xbb0498c0	-0.0020232648
120	0x3e0eaa64	0.13932186
121	0x3b0a664f	0.002111811
122	0x3e4403d5	0.19142087
123	0x3e0f5538	0.13997352
124	0x3e0ed2bd	0.13947578
125	0x3dea212d	0.11432109
126	0xbcfbeb82	-0.030751947
127	0x3d1e42f0	0.038638055
128	0x3e05eb12	0.13077953
129	0xbca57946	-0.02019943
130	0x3d4d4d67	0.050122645
131	0x3e0a3044	0.13494974
132	0x3ca3e971	0.020008774
133	0x3e101725	0.14071329
134	0x3dfa2a99	0.12215156
135	0x3dddeabe	0.10835789
136	0x3d59e525	0.053197045
137	0x3bca721c	0.0061781537
138	0x3c969e30	0.018385977
139	0xbe226a45	-0.15860851
140	0x3ced48f2	0.028965447
141	0x3a99c31c	0.0011731121
142	0x3d396b8b	0.045268577
143	0xbe098dbb	-0.13432972
144	0x3c147a41	0.009062351
145	0x3c97cfb8	0.018531665
146	0xbda2766f	-0.07932746
147	0xbd3aec47	-0.045635488
148	0xbd0baa9d	-0.034098256
149	0x3df48683	0.119397186
150	0x3d83ccf1	0.06435574
151	0xbd62eb1e	-0.055400006
152	0x3afde8af	0.0019371713
153	0x3d8872c6	0.06662516
154	0x3dbb1c11	0.091362126
155	0x3ca1d26d	0.01975366
156	0xbcea78bb	-0.028622022
157	0x3b23678d	0.0024933547
158	0x3cc6a0be	0.02424657
159	0xbd7fe1ea	-0.062471308
160	0x3e27350a	0.16328827
161	0x3cc473be	0.023980971
162	0xbce00dd7	-0.02735035
163	0x3db512f3	0.08841505
164	0x3dd585ba	0.10425897
165	0x3db851cf	0.08999979
166	0x3d338428	0.043827206
167	0x3dd2524c	0.10269603
168	0xbe0d9ee2	-0.1383014
169	0x3db71d3c	0.08941123
170	0x3d1fa2e5	0.038973708
171	0x3bd13763	0.0063847764
172	0x3dc02f73	0.0938405
173	0xbd8358d2	-0.064134255
174	0x3df56139	0.119814344
175	0x3d2a20c1	0.041535143
176	0xbcc1d029	-0.023658829
177	0x3d59e732	0.053199
178	0xbd533453	-0.051563572
179	0xbd8aa9f2	-0.06770696
180	0x3d577660	0.052603126
181	0xbe02073a	-0.12698069
182	0x3dec9e93	0.11553683
183	0xbd0cfbab	-0.034419697
184	0xbe118224	-0.14209801
185	0xbdd96398	-0.10614699
186	0xbbaadc64	-0.005214261
187	0x3c8259e2	0.015912
188	0xbd7cb060	-0.06169164
189	0x3db35bd8	0.08757752
190	0x3d2731b3	0.04081888
191	0xbd0c8202	-0.034303673
192	0xbc20a32c	-0.009804528
193	0x3e501a63	0.20322566
194	0x3da3736b	0.079809986
195	0x3e049b88	0.12949955
196	0xba6c544f	-0.00090152485
197	0x3b8cb405	0.004293921
198	0x3d750666	0.059820555
199	0x3d772c23	0.060344826
200	0x3e74e503	0.23915486
201	0x3e222455	0.15834172
202	0x3cc2744e	0.023737099
203	0x3e5bd9e7	0.21469842
204	0x3e7e5d71	0.24840333
205	0x3ddd1241	0.10794497
206	0x3d33554a	0.04378251
207	0x3dd580a0	0.10424924
208	0x3d8ade21	0.06780649
209	0x3e5452ef	0.20734762
210	0x3df3b775	0.11900226
211	0x3dae2917	0.08503931
212	0x3e6dc0b1	0.23218037
213	0x3e4267ad	0.18984862
214	0x3e13854b	0.14406316
215	0x3e41eb39	0.18937387
216	0x3d57559e	0.052571885
217	0x3e45676c	0.19277734
218	0x3e16e910	0.14737344
219	0x3c8fe5b5	0.017565588
220	0x3e4cabf4	0.1998747
221	0xbc987ea8	-0.018615082
222	0x3d9ccb5c	0.07655975
223	0x3e16bd7d	0.14720722
224	0x3e4ad28f	0.19806884
225	0xbb263242	-0.0025359546
226	0x3e5814a1	0.2110162
227	0xbd1bf2e1	-0.038073424
228	0x3e7d1a6b	0.24717109
229	0x3cedff58	0.029052421
230	0x3e5e8863	0.21731715
231	0x3de2bc11	0.11071027
232	0xbc84eb05	-0.016225347
233	0x3d59d3b2	0.053180404
234	0x3e490dc3	0.19634156
235	0x3d27eaab	0.04099528
236	0x3df16c32	0.11788215
237	0x3db2bcb5	0.08727399
238	0x3e2ffe56	0.17186865
239	0x3dea8c3f	0.11452531
240	0x3de31518	0.11088008
241	0x3e72c3a9	0.23707451
242	0x3e5ddef2	0.21667078
243	0x3e561ea5	0.20910127
244	0x3d2ebed7	0.042662468
245	0x3e0ddce6	0.13853797
246	0x3da255bc	0.07926509
247	0x3e85cc85	0.261326
248	0x3e14ed5d	0.14543672
249	0x3e3adf7c	0.18249315
250	0x3d83783d	0.06419418
251	0x3e4fbf35	0.20287783
252	0x3d2c36df	0.042044517
253	0x3d2e3f4e	0.04254084
254	0x3c4dea1e	0.012568025
255	0x3e1b5fc7	0.15173255
